best_discrete_model.pth (torch, 2173 bytes, 1 tensors)

param_estimator.weights f4 [108]
00000000: c5e4 0ebb 480a 08bc 4688 9fbd 5ed7 87be
00000010: 4e71 7b3e 93ea db3e 4f42 72be 6074 a5be
00000020: ddbb fdbd c7a0 9dbe a61f 0d3f b6e0 0f3f
00000030: 088c b12b 74d1 d92a 974b 33b7 5b6e 823c
00000040: c071 67bd 2b78 a331 6132 3dbb 6730 c1be
00000050: 469e 9734 aaae 8aba b0e0 cb3e 73db f43b
00000060: ddba d2b2 70b8 0531 bee9 2bb3 ddd1 8d3e
00000070: 9ae1 84be 455d dabe 4f53 633e 5b4c 703e
00000080: ab97 de3d e7a4 5f3e 0d7d 93be 49a1 103f
00000090: 7c41 dfb7 c3c8 03ab ce05 f6ab 82e2 613e
000000a0: 90b0 afbd 24bd 5eb3 10a5 b8ba 93ba 253f
000000b0: 6808 a933 9cb7 60bd 38fa 813e 8a5a 943e
000000c0: 0273 2331 344c 10b2 68aa 1633 f553 c5be
000000d0: 9ec7 403f 29ee 093f 1954 c7bd aab1 07bf
000000e0: 7623 d0be 78ab 78bf 98cd 3dbf 3aa0 493f
000000f0: 2229 39ac 576f 02b4 8810 0cb8 8300 bebd
00000100: e98c 55bc 795f 80ba ce72 8237 e539 603c
00000110: 914c 0d3f 3024 4dbc fe57 693e 58a8 ec30
00000120: c439 c633 be7f c5b1 5363 8531 e673 16be
00000130: 3dfa 4cbf 2045 a23e 7ccf 99bd 5663 a0be
00000140: 7ec8 063f 0190 fd3e e0cc 9c3d 7f97 493f
00000150: 3898 2aab 7c2d ee28 8b61 542b dfba 3b3c
00000160: bb65 a03a fc28 f83a a435 04b9 5330 e5bd
00000170: 5226 cc3e 8699 d73b aa00 ce3c 288a 6931
00000180: dab8 1db1 64fb 0cb2 36db d632 1bd7 b4bd
00000190: fe5b 81bf ce5b a93e de85 853d 7fdc a9bd
000001a0: 04aa fc3e 69e6 033f 1101 9f3d ae1f 3e3f
-0.0021803838 -0.0083032325 -0.07789664 -0.265315 0.24554941 0.42952403 -0.23658107 -0.3231535
-0.12389348 -0.30786726 0.55126417 0.56202257 1.2615473e-12 3.869228e-13 -1.0686831e-05 0.015921762
-0.056504965 4.757586e-09 -0.002886914 -0.3773224 2.82411e-07 -0.0010580618 0.3981986 0.0074724494
-2.4532193e-08 1.9458888e-09 -4.0026627e-08 0.27699175 -0.2595337 -0.42649284 0.22199748 0.23466627
0.10868772 0.21840249 -0.28806344 0.564961 -2.6614165e-05 -4.681916e-13 -1.7480962e-12 0.22059062
-0.085785985 -5.1860425e-08 -0.0014087278 0.64737815 7.871205e-08 -0.054862604 0.25386214 0.28975326
2.3784996e-09 -8.39923e-09 3.507958e-08 -0.38540617 0.7530459 0.5387903 -0.09732837 -0.5300547
-0.40652055 -0.9713664 -0.74141836 0.7876011 -2.6312915e-12 -1.2147699e-07 -3.3393997e-05 -0.09277441
-0.013034084 -0.0009794078 1.5550668e-05 0.013685678 0.55194956 -0.012520835 0.22787473 1.7219106e-09
9.230601e-08 -5.747977e-09 3.8821013e-09 -0.14692649 -0.80069333 0.31693363 -0.07510278 -0.31325787
0.52649677 0.4952393 0.07656264 0.7874679 -6.060738e-13 2.6443034e-14 7.54529e-13 0.011458128
0.0012237349 0.0018933113 -0.00012608484 -0.11190858 0.39872986 0.0065795807 0.025146801 3.3984495e-09
-2.2951583e-09 -8.206232e-09 2.5012564e-08 -0.088300906 -1.0106199 0.33077854 0.06519674 -0.082940094
0.49348462 0.51523453 0.07763875 0.7426709
